consumption_model.tflite (tflite, 204424 bytes, 5 tensors)

sequential/dense_1/MatMul f4 [1, 64]
0	0xbc55a522	-0.013039859
1	0x3e363119	0.17792167
2	0xbda0f2c0	-0.07858801
3	0x3e8a1ea2	0.26976496
4	0xbe0a1aab	-0.13486736
5	0x3de877a2	0.11350943
6	0x3defff42	0.117186084
7	0xbe2efc66	-0.1708847
8	0xbe033c70	-0.12816024
9	0x3e1f41e2	0.15552476
10	0x3e2e3943	0.17014031
11	0xbde342c7	-0.11096721
12	0x3e33b6c4	0.17550188
13	0x3e8de844	0.27716267
14	0x3e109622	0.14119771
15	0xbe08061d	-0.13283582
16	0x3c0d7e3d	0.008636055
17	0x3e0881e1	0.13330795
18	0xbe2d656c	-0.1693322
19	0x3d0de08e	0.03463798
20	0x3d2b6eac	0.04185359
21	0x3dae38cb	0.08506926
22	0xbe8fcaf3	-0.28084525
23	0xbe6ef935	-0.23337252
24	0x3e945df7	0.2897794
25	0x3e651f03	0.22375111
26	0xbe148ff1	-0.14508034
27	0x3d6bd920	0.057580113
28	0x3e1affff	0.15136717
29	0xbdf6e135	-0.120546736
30	0xbe9134a1	-0.28360465
31	0xbe02f92a	-0.12790361
32	0xbca177fe	-0.019710537
33	0xbe48096a	-0.19534841
34	0xbe39b36d	-0.18134852
35	0x3e5c17ba	0.21493426
36	0x3db25868	0.087082684
37	0x3e99a64c	0.30009687
38	0xbc9e9877	-0.01935981
39	0x3e065134	0.13116914
40	0xbce18f19	-0.027534055
41	0xbe757c96	-0.23973307
42	0xbde20e76	-0.110379145
43	0x3d807ffe	0.062744126
44	0xbdedf782	-0.11619474
45	0x3b013a7c	0.0019718697
46	0x3e77bd31	0.24193265
47	0xbe92bd98	-0.28660274
48	0xbd31e859	-0.043434475
49	0x3dd1aee7	0.10238438
50	0x3de4642e	0.1115192
51	0xbe79b929	-0.24387039
52	0xbcd230c3	-0.025658017
53	0x3dc4010d	0.09570513
54	0x3e1d02cc	0.15333098
55	0xbe66e2e3	-0.22547488
56	0x3d0fd01d	0.03511058
57	0xbcd3c6d2	-0.02585164
58	0x3d022e85	0.031782646
59	0xbe25fd51	-0.16209914
60	0xbc8e5126	-0.017372679
61	0xbe93f932	-0.28901058
62	0xbe940c7a	-0.2891577
63	0xbd14fd76	-0.03637453

sequential/conv1d/BiasAdd/ReadVariableOp f4 [32]
0	0xbd0c852b	-0.034306686
1	0x00000000	0.0
2	0xbd3d34b8	-0.046192855
3	0x3d5dd295	0.054155905
4	0xbc96eb81	-0.018422844
5	0x00000000	0.0
6	0xbd284141	-0.041077856
7	0xbd4fa5dc	-0.050695285
8	0xbb605d37	-0.0034235248
9	0x3c970842	0.018436555
10	0x39ad21ed	0.00033022408
11	0x3c08ea38	0.008356623
12	0x00000000	0.0
13	0xbd11f1db	-0.035631042
14	0x3dbe422a	0.092899635
15	0xbc1ddace	-0.009634687
16	0x3c36cec3	0.011157694
17	0xbc84d2ca	-0.016213793
18	0xbd281ef1	-0.041045133
19	0xbcd34376	-0.025789004
20	0x00000000	0.0
21	0xbd02c3e8	-0.031925112
22	0xbd0c22ef	-0.034213003
23	0xbd0b100a	-0.033950843
24	0x00000000	0.0
25	0xbad7c442	-0.0016461688
26	0x00000000	0.0
27	0xbc8b6230	-0.017014593
28	0xbc9044e4	-0.017610975
29	0xbcee6e1c	-0.029105239
30	0x00000000	0.0
31	0xbcde3253	-0.027123606

sequential/conv1d/Conv1D f4 [32, 1, 3, 1]
0	0x3dd87f58	0.10571164
1	0xbca74518	-0.020418689
2	0x3e67ab87	0.22624026
3	0xbbfbe4a0	-0.0076871663
4	0xbe016a0f	-0.12638114
5	0xbe24439c	-0.16041416
6	0x3df69099	0.120392986
7	0x3d0ae4f6	0.03390976
8	0xbd856dc0	-0.06515074
9	0xbec21f5c	-0.3791455
10	0xbd4f9b79	-0.05068538
11	0x3d5addc4	0.05343415
12	0x3be5dab7	0.007014598
13	0x3e4c5f30	0.19958186
14	0x3e1b9356	0.15192923
15	0xbe6876d8	-0.22701585
16	0xbdc22810	-0.094802976
17	0xbd599f34	-0.053130344
18	0x3e2001d0	0.15625691
19	0xbd1139c4	-0.03545548
20	0xbc8622e5	-0.01637406
21	0x3e15059e	0.14552924
22	0xbdaf719a	-0.0856659
23	0x3cb7cf87	0.022437824
24	0xbe506295	-0.20350106
25	0x3bc6a838	0.0060625337
26	0x3c8e3546	0.017359387
27	0x3dae1f02	0.08502008
28	0xbe014e6e	-0.12627575
29	0xb802283b	-3.1031883e-05
30	0xbe1ad961	-0.15121986
31	0x3e469f3a	0.19396678
32	0xbd265d3d	-0.040616263
33	0x3ded0d7a	0.11574836
34	0x3d3ac86b	0.04560129
35	0xbe4b230a	-0.19837585
36	0xbe08d4b3	-0.13362388
37	0xbdbacfa0	-0.091216326
38	0x3c0bd640	0.008534968
39	0x3e659cbb	0.22423069
40	0x3c87f358	0.016595528
41	0xbe324d2e	-0.17412254
42	0x3d9329dc	0.071857184
43	0x3e446dcd	0.1918251
44	0xbeba5996	-0.36396474
45	0xbd347f5f	-0.044066783
46	0x3e7539d2	0.23947838
47	0xbe2d8e8d	-0.1694891
48	0xbe3e2299	-0.18567885
49	0xbe39eb94	-0.18156272
50	0x3eac7e5f	0.33690163
51	0xbe143ba5	-0.14475878
52	0x3bb57c47	0.0055384967
53	0x3e5f3ae7	0.21799813
54	0x3df64ebf	0.120267384
55	0x36843d4e	3.9410434e-06
56	0xbd1b3d2b	-0.03790013
57	0x3de809bb	0.11329981
58	0xbe35947b	-0.17732422
59	0x3e35d9d6	0.17758879
60	0xbe7b4552	-0.24538162
61	0xbe355e28	-0.17711699
62	0xbe7192c8	-0.23591149
63	0x3cd62080	0.026138544
64	0x3c9f7875	0.019466618
65	0x3e06ba8f	0.13157104
66	0x3dd6aa47	0.104816966
67	0x3e187609	0.14888777
68	0xbe2581c7	-0.16162787
69	0x3d77dfa4	0.060516015
70	0x3e42da50	0.19028592
71	0xbe3fbd34	-0.18724519
72	0xbd1d7fb8	-0.03845188
73	0xbe6301c1	-0.22168638
74	0xbe0ba0a5	-0.136355
75	0x3b87ae3c	0.0041406434
76	0x3e5b1249	0.21393694
77	0xbe590604	-0.21193701
78	0x3c7d5820	0.015462905
79	0xbd59ed50	-0.053204834
80	0xbe324362	-0.17408517
81	0x3e03dd4d	0.12877388
82	0x3c3e578d	0.011617553
83	0xbdd5cf11	-0.104398854
84	0x3e5d6f72	0.21624544
85	0x3d862485	0.06549934
86	0xbe776def	-0.2416303
87	0xbe4499bb	-0.19199269
88	0x3e80b56d	0.25138417
89	0xbb4dd69e	-0.003140844
90	0xbe7b7b09	-0.24558653
91	0x3de79dc0	0.11309385
92	0xbd826e82	-0.06368734
93	0x3d48a08f	0.048981246
94	0x3ce88f2b	0.02838858
95	0x3d37b744	0.04485251

sequential/dense/BiasAdd/ReadVariableOp f4 [64]
0	0xbbc4942a	-0.005999108
1	0x3c6d374d	0.014478517
2	0xbbc4c03b	-0.006004361
3	0x3c4dcf79	0.012561672
4	0xbbc4c7d7	-0.006005268
5	0x3c64adaf	0.013957425
6	0x3c6bdd8c	0.014396083
7	0x00000000	0.0
8	0xbbc4c7c9	-0.0060052616
9	0x3c6fd67d	0.01463854
10	0xbcf22632	-0.029559229
11	0xbbab8c22	-0.005235211
12	0x3c827913	0.015926873
13	0x00000000	0.0
14	0x3c57f1fd	0.013180253
15	0xbbe10eea	-0.006868233
16	0xbd14d6fe	-0.036337845
17	0xbce14802	-0.027500156
18	0xbbc4b64c	-0.006003177
19	0xbbcdad29	-0.006276746
20	0xbbd02aeb	-0.0063527725
21	0xbbd6f771	-0.006560259
22	0xbccf4406	-0.02530099
23	0xbc9fdeec	-0.019515477
24	0x3c60e505	0.0137264775
25	0x3c6fd66c	0.0146385245
26	0xbb971e51	-0.0046117683
27	0x00000000	0.0
28	0x3c5af5f5	0.013364305
29	0xbbc4c7b0	-0.00600525
30	0xbbc4c85c	-0.00600533
31	0xbc9a4aa3	-0.018834418
32	0xbc92c78b	-0.017917415
33	0xbbc4c84e	-0.0060053235
34	0xbbc4c50a	-0.006004934
35	0xbb35db4d	-0.0027749122
36	0x00000000	0.0
37	0x3c64f9c5	0.013975565
38	0xbc151079	-0.009098166
39	0x00000000	0.0
40	0x3932e13a	0.00017059306
41	0xbbc4c88e	-0.0060053533
42	0xbbc4c788	-0.0060052313
43	0xbc0f5afb	-0.008749719
44	0xbbc4c32f	-0.006004713
45	0xbba5a481	-0.005055011
46	0xbbac9e7e	-0.005267917
47	0xbbc4bfc4	-0.0060043056
48	0xbbc4c02f	-0.0060043554
49	0xbbd62216	-0.006534825
50	0x3c69106e	0.014225109
51	0xbb98e599	-0.004666042
52	0xbbc4c243	-0.006004603
53	0x3c610416	0.013733884
54	0x3c6d6f54	0.014491875
55	0xbba27827	-0.004958171
56	0x3c84de2a	0.016219217
57	0xbba775a0	-0.0051104575
58	0xbb8607f2	-0.0040903026
59	0x00000000	0.0
60	0xbbc4bfaf	-0.006004296
61	0x00000000	0.0
62	0xbba9c56c	-0.005181005
63	0xbbc41cfb	-0.0059849

sequential/dense/MatMul i1 [64, 3136] scale=0.003868494 zero_point=0
0	0x02	0.007736988
1	0x08	0.030947952
2	0x03	0.011605482
3	0xf5	-0.042553432
4	0xff	-0.003868494
5	0x02	0.007736988
6	0x00	0.0
7	0x07	0.027079457
8	0xff	-0.003868494
9	0x08	0.030947952
10	0xff	-0.003868494
11	0xf7	-0.034816444
12	0x07	0.027079457
13	0xfc	-0.015473976
14	0xf9	-0.027079457
15	0x07	0.027079457
16	0xf9	-0.027079457
17	0xfc	-0.015473976
18	0xfb	-0.019342469
19	0xfd	-0.011605482
20	0xf9	-0.027079457
21	0xff	-0.003868494
22	0xfe	-0.007736988
23	0x09	0.034816444
24	0x09	0.034816444
25	0x02	0.007736988
26	0x07	0.027079457
27	0xfd	-0.011605482
28	0x05	0.019342469
29	0x03	0.011605482
30	0xf6	-0.038684938
31	0xf4	-0.046421926
32	0x00	0.0
33	0x03	0.011605482
34	0xfa	-0.023210963
35	0xfb	-0.019342469
36	0x07	0.027079457
37	0x0b	0.042553432
38	0xfe	-0.007736988
39	0x03	0.011605482
40	0xfd	-0.011605482
41	0x01	0.003868494
42	0x00	0.0
43	0xfc	-0.015473976
44	0x04	0.015473976
45	0xfb	-0.019342469
46	0xfb	-0.019342469
47	0xf8	-0.030947952
48	0xfb	-0.019342469
49	0xfd	-0.011605482
50	0xf4	-0.046421926
51	0x03	0.011605482
52	0xf6	-0.038684938
53	0x05	0.019342469
54	0x04	0.015473976
55	0xf8	-0.030947952
56	0x0b	0.042553432
57	0x02	0.007736988
58	0xfa	-0.023210963
59	0xf5	-0.042553432
60	0x07	0.027079457
61	0x0a	0.038684938
62	0xf9	-0.027079457
63	0x06	0.023210963
64	0xfa	-0.023210963
65	0x05	0.019342469
66	0xf6	-0.038684938
67	0x01	0.003868494
68	0xff	-0.003868494
69	0x0a	0.038684938
70	0xff	-0.003868494
71	0xf5	-0.042553432
72	0xf5	-0.042553432
73	0x08	0.030947952
74	0x03	0.011605482
75	0x07	0.027079457
76	0x02	0.007736988
77	0xff	-0.003868494
78	0x05	0.019342469
79	0x07	0.027079457
80	0x05	0.019342469
81	0xf9	-0.027079457
82	0xfd	-0.011605482
83	0x02	0.007736988
84	0x08	0.030947952
85	0xfa	-0.023210963
86	0x08	0.030947952
87	0x00	0.0
88	0x06	0.023210963
89	0x06	0.023210963
90	0xf8	-0.030947952
91	0xf8	-0.030947952
92	0xf8	-0.030947952
93	0xf5	-0.042553432
94	0x07	0.027079457
95	0xfc	-0.015473976
96	0xf5	-0.042553432
97	0x05	0.019342469
98	0xf9	-0.027079457
99	0x01	0.003868494
100	0x07	0.027079457
101	0xfc	-0.015473976
102	0xfe	-0.007736988
103	0xff	-0.003868494
104	0xf5	-0.042553432
105	0xfc	-0.015473976
106	0xff	-0.003868494
107	0x03	0.011605482
108	0xfe	-0.007736988
109	0xff	-0.003868494
110	0xfe	-0.007736988
111	0x09	0.034816444
112	0xf7	-0.034816444
113	0x08	0.030947952
114	0xf8	-0.030947952
115	0x03	0.011605482
116	0x07	0.027079457
117	0x00	0.0
118	0xf6	-0.038684938
119	0x0a	0.038684938
120	0x09	0.034816444
121	0x06	0.023210963
122	0xfc	-0.015473976
123	0xfc	-0.015473976
124	0xfa	-0.023210963
125	0xfe	-0.007736988
126	0xfc	-0.015473976
127	0x07	0.027079457
128	0x00	0.0
129	0x06	0.023210963
130	0xf7	-0.034816444
131	0xf7	-0.034816444
132	0x00	0.0
133	0x08	0.030947952
134	0xf9	-0.027079457
135	0x00	0.0
136	0xfe	-0.007736988
137	0x00	0.0
138	0x08	0.030947952
139	0xf5	-0.042553432
140	0xfa	-0.023210963
141	0x07	0.027079457
142	0x08	0.030947952
143	0x05	0.019342469
144	0x0a	0.038684938
145	0x00	0.0
146	0xfb	-0.019342469
147	0x06	0.023210963
148	0xf8	-0.030947952
149	0x03	0.011605482
150	0x09	0.034816444
151	0x04	0.015473976
152	0xf7	-0.034816444
153	0x01	0.003868494
154	0x00	0.0
155	0x00	0.0
156	0x01	0.003868494
157	0xf5	-0.042553432
158	0x01	0.003868494
159	0x09	0.034816444
160	0xf4	-0.046421926
161	0x01	0.003868494
162	0xfc	-0.015473976
163	0x06	0.023210963
164	0x08	0.030947952
165	0x09	0.034816444
166	0x03	0.011605482
167	0xf9	-0.027079457
168	0x01	0.003868494
169	0xf7	-0.034816444
170	0x03	0.011605482
171	0xfe	-0.007736988
172	0x08	0.030947952
173	0xfb	-0.019342469
174	0x0b	0.042553432
175	0x08	0.030947952
176	0x0a	0.038684938
177	0xfe	-0.007736988
178	0xf4	-0.046421926
179	0x02	0.007736988
180	0xf7	-0.034816444
181	0x04	0.015473976
182	0x07	0.027079457
183	0x01	0.003868494
184	0xfe	-0.007736988
185	0xfe	-0.007736988
186	0xf9	-0.027079457
187	0xf6	-0.038684938
188	0xf6	-0.038684938
189	0xfd	-0.011605482
190	0x01	0.003868494
191	0xff	-0.003868494
192	0xf5	-0.042553432
193	0x09	0.034816444
194	0x05	0.019342469
195	0xf7	-0.034816444
196	0xfa	-0.023210963
197	0x01	0.003868494
198	0xfc	-0.015473976
199	0x00	0.0
200	0x08	0.030947952
201	0x05	0.019342469
202	0x03	0.011605482
203	0xfd	-0.011605482
204	0xfc	-0.015473976
205	0xfc	-0.015473976
206	0xf7	-0.034816444
207	0xfb	-0.019342469
208	0xf8	-0.030947952
209	0xf7	-0.034816444
210	0xf4	-0.046421926
211	0x08	0.030947952
212	0x04	0.015473976
213	0xfe	-0.007736988
214	0x07	0.027079457
215	0x03	0.011605482
216	0x04	0.015473976
217	0xf8	-0.030947952
218	0xff	-0.003868494
219	0xfe	-0.007736988
220	0xf4	-0.046421926
221	0xf7	-0.034816444
222	0x03	0.011605482
223	0x05	0.019342469
224	0x03	0.011605482
225	0xfa	-0.023210963
226	0xf9	-0.027079457
227	0xfc	-0.015473976
228	0x02	0.007736988
229	0x06	0.023210963
230	0x06	0.023210963
231	0x0a	0.038684938
232	0x03	0.011605482
233	0xfb	-0.019342469
234	0x0a	0.038684938
235	0xf9	-0.027079457
236	0xfe	-0.007736988
237	0xf8	-0.030947952
238	0x02	0.007736988
239	0x01	0.003868494
240	0x08	0.030947952
241	0xff	-0.003868494
242	0x01	0.003868494
243	0xfa	-0.023210963
244	0xfe	-0.007736988
245	0xf5	-0.042553432
246	0xf3	-0.05029042
247	0x06	0.023210963
248	0x09	0.034816444
249	0x07	0.027079457
250	0x0b	0.042553432
251	0xf6	-0.038684938
252	0xf9	-0.027079457
253	0xfb	-0.019342469
254	0x08	0.030947952
255	0xff	-0.003868494
